…
2021-07-09 06:16:32.590391: I tensorflow/compiler/xla/service/service.cc:176]   StreamExecutor device (0): Host, Default Version
2021-07-09 06:16:32.591158: I tensorflow/core/common_runtime/process_util.cc:147] Creating new thread pool with default inter op setting: 2. Tune using inter_op_parallelism_threads for best performance.
X_train shape -  (8000, 33867)
y_train shape -  (8000,)
Model: "sequential"
_________________________________________________________________
Layer (type)                 Output Shape              Param #   
=================================================================
dense (Dense)                (None, 22)                745096    
_________________________________________________________________
dropout (Dropout)            (None, 22)                0         
_________________________________________________________________
activation (Activation)      (None, 22)                0         
_________________________________________________________________
dense_1 (Dense)              (None, 16)                368       
_________________________________________________________________
dropout_1 (Dropout)          (None, 16)                0         
_________________________________________________________________
activation_1 (Activation)    (None, 16)                0         
_________________________________________________________________
dense_2 (Dense)              (None, 12)                204       
_________________________________________________________________
activation_2 (Activation)    (None, 12)                0         
_________________________________________________________________
dense_3 (Dense)              (None, 1)                 13        
_________________________________________________________________
activation_3 (Activation)    (None, 1)                 0         
=================================================================
Total params: 745,681
Trainable params: 745,681
Non-trainable params: 0
_________________________________________________________________
Epoch 1/100
  1/500 [..............................] - ETA: 0s - loss: 0.5866 - accuracy: 0.5625  2/
…
